…
 empty dictionary.\"",
      "opts": [
        "1 tool",
        "2 tools",
        "6 tools",
        "NONE of the other answers is correct",
        "No tools are provided in the prompt",
        "3 tools",
        "10 tools",
        "8 tools",
        "4 tools",
        "7 tools",
        "5 tools"
      ],
      "a": 2,
      "cls": [
        1
      ]
    },
    {
      "src": "2025 — Exam 1",
      "year": "2025",
      "q": "We loaded a pretrained decoder-only transformer from HuggingFace, and printed out the following model summary: LlamaForCausalLM( (model): LlamaModel( (embed_tokens): Embedding(128256, 2048) (layers): ModuleList( (0-15): 16 x LlamaDecoderLayer( (self_attn): LlamaAttention( (q_proj): Linear(in_features=2048, out_features=2048, bias=False) (k_proj): Linear(in_features=2048, out_features=512, bias=False) (v_proj): Linear(in_features=2048, out_features=512, bias=False) (o_proj): Linear(in_features=2048, out_features=2048, bias=False) ) (mlp): LlamaMLP( (gate_proj): Linear(in_features=2048, out_features=8192, bias=False) (up_proj): Linear(in_features=2048, out_features=8192, bias=False) (down_proj): Linear(in_features=8192, out_features=2048, bias=False) (act_fn): SiLU() ) (input_layernorm): LlamaRMSNorm((2048,), eps=1e-05) (post_attention_layernorm): LlamaRMSNorm((2048,), eps=1e-05) ) ) (norm): LlamaRMSNorm((2048,), eps=1e-05) (rotary_emb): LlamaRotaryEmbedding() ) (lm_head): Linear(in_features=2048, out_features=128256, bias=False) ) What is the vocabulary size of the model?",
      "opts": [
        "8192",
        "Vocabulary size will vary depending on the length of the prompt.",
        "128256",
        "Vocabulary size is usually fixed at 1,000,000 for all models.",
        "2048 x number_of_heads",
        "Vocabulary size will vary depending on the number of stopwords in the prompt.",
…
        "legacy systems built out of what is no longer state-of-the-art artificial intelligence technology",
        "NONE of the other options are correct",
        "software for building automated travel agents",
        "software for generating images based on a text prompts",
        "AI systems that have been though a process of agentification"
      ],
      "a": 0,
      "cls": [
        10
      ]
    },
    {
      "src": "2025 — Exam 1",
      "year": "2025",
      "q": "We loaded a pretrained decoder-only transformer from HuggingFace and printed out the following model summary: LlamaForCausalLM( (model): LlamaModel( (embed_tokens): Embedding(128256, 2048) (layers): ModuleList( (0-15): 16 x LlamaDecoderLayer( (self_attn): LlamaAttention( (q_proj): Linear(in_features=2048, out_features=2048, bias=False) (k_proj): Linear(in_features=2048, out_features=512, bias=False) (v_proj): Linear(in_features=2048, out_features=512, bias=False) (o_proj): Linear(in_features=2048, out_features=2048, bias=False) ) (mlp): LlamaMLP( (gate_proj): Linear(in_features=2048, out_features=8192, bias=False) (up_proj): Linear(in_features=2048, out_features=8192, bias=False) (down_proj): Linear(in_features=8192, out_features=2048, bias=False) (act_fn): SiLU() ) (input_layernorm): LlamaRMSNorm((2048,), eps=1e-05) (post_attention_layernorm): LlamaRMSNorm((2048,), eps=1e-05) ) ) (norm): LlamaRMSNorm((2048,), eps=1e-05) (rotary_emb): LlamaRotaryEmbedding() ) (lm_head): Linear(in_features=2048, out_features=128256, bias=False) ) What is the \"lm_head\" component doing?",
      "opts": [
        "ALL other options are correct",
        "Projecting the input embedding of a token into the Query vector",
        "Mapping embedding vectors from the last transformer block into logits (to then generate a probability distribution over output tokens)",
        "Sampling the next token by redistributing the probability mass over the top k tokens",
…
      "q": "If the output of a text classifier produces the following confusion matrix on the test set: Predicted Class + - Actual + 75 5 Class - 25 95 What is the Precision of the classifier (for just the positive class)?",
      "opts": [
        "79.2%",
        "NONE of the other options is correct",
        "93.8%",
        "90%",
        "47.5%",
        "95%",
        "85%",
        "75%"
      ],
      "a": 7,
      "cls": [
        2
      ]
    },
    {
      "src": "2025 — Exam 2",
      "year": "2025",
      "q": "Risposta errata We loaded a Llama model from HuggingFace, and printed out the following model summary: LlamaForCausalLM( (model): LlamaModel( (embed_tokens): Embedding(128256, 2048) (layers): ModuleList( (0-15): 16 x LlamaDecoderLayer( (self_attn): LlamaAttention( (q_proj): Linear(in_features=2048, out_features=2048, bias=False) (k_proj): Linear(in_features=2048, out_features=512, bias=False) (v_proj): Linear(in_features=2048, out_features=512, bias=False) (o_proj): Linear(in_features=2048, out_features=2048, bias=False) ) (mlp): LlamaMLP( (gate_proj): Linear(in_features=2048, out_features=8192, bias=False) (up_proj): Linear(in_features=2048, out_features=8192, bias=False) (down_proj): Linear(in_features=8192, out_features=2048, bias=False) (act_fn): SiLU() ) (input_layernorm): LlamaRMSNorm((2048,), eps=1e-05) (post_attention_layernorm): LlamaRMSNorm((2048,), eps=1e-05) ) ) (norm): LlamaRMSNorm((2048,), eps=1e-05) (rotary_emb): LlamaRotaryEmbedding() ) (lm_head): Linear(in_features=2048, out_features=128256, bias=False) ) Note that the model contains two normalisation layers: \"input_layernorm\" and \"post_attention_layernorm\" in each LlamaDecoderLayer. What is the \"post_attention_layernorm\" doing?",
      "opts": [
        "NONE of the other answers are correct",
        "normalizing the output of the self-attention layer before adding it to the residual embedding",
…
        "NONE of the other options is correct",
        "By using GPT2 rather than BERT to classify the documents",
        "By replacing the BERT model with a linear classifier",
        "By training the BERT model on sentiment analysis dataset rather than a relevance dataset, since they are bigger and easier to find"
      ],
      "a": 0,
      "cls": [
        9
      ]
    },
    {
      "src": "2025 — Exam 2",
      "year": "2025",
      "q": "We loaded a pretrained BERT model from HuggingFace, and printed out the following model summary: BertForSequenceClassification( (bert): BertModel( (embeddings): BertEmbeddings( (word_embeddings): Embedding(105879, 768, padding_idx=0) (position_embeddings): Embedding(512, 768) (token_type_embeddings): Embedding(2, 768) (LayerNorm): LayerNorm((768,), eps=1e-12, elementwise_affine=True) (dropout): Dropout(p=0.1, inplace=False) ) (encoder): BertEncoder( (layer): ModuleList( (0-11): 12 x BertLayer( (attention): BertAttention( (self): BertSdpaSelfAttention( (query): Linear(in_features=768, out_features=768, bias=True) (key): Linear(in_features=768, out_features=768, bias=True) (value): Linear(in_features=768, out_features=768, bias=True) (dropout): Dropout(p=0.1, inplace=False) ) (output): BertSelfOutput( (dense): Linear(in_features=768, out_features=768, bias=True) (LayerNorm): LayerNorm((768,), eps=1e-12, elementwise_affine=True) (dropout): Dropout(p=0.1, inplace=False) ) ) (intermediate): BertIntermediate( (dense): Linear(in_features=768, out_features=3072, bias=True) (intermediate_act_fn): GELUActivation() ) (output): BertOutput( (dense): Linear(in_features=3072, out_features=768, bias=True) (LayerNorm): LayerNorm((768,), eps=1e-12, elementwise_affine=True) (dropout): Dropout(p=0.1, inplace=False) ) ) ) ) (pooler): BertPooler( (dense): Linear(in_features=768, out_features=768, bias=True) (activation): Tanh() ) ) (dropout): Dropout(p=0.1, inplace=False) (classifier): Linear(in_features=768, out_features=4, bias=True) ) Which of the following statements is False?",
      "opts": [
        "The vocabulary size is 105879",
        "The model contains 12 layers",
        "Attention is bidirectional in this model",
        "The model works with sequences of tokens of up to 512 tokens in length",
        "The embedding vectors have dimension of 512",
        "ALL of the other answers are CORRECT",
…
